code/utils/pepland_utils/cpkt/linear_pred_pharms/data/model.pth (torch, 319271 bytes, 2 tensors)

weight f4 [264, 300]
0	0xbcd69787	-0.0261953
1	0xbd207495	-0.03917368
2	0x3c2bdf73	0.010490286
3	0xbd61fce3	-0.055172812
4	0xbd46ce76	-0.04853674
5	0x3b8ca9ad	0.004292688
6	0x3bf91e34	0.0076024774
7	0xbd6750ce	-0.056473546
8	0xbc746796	-0.014917275
9	0xbca5c1df	-0.020234047
10	0xbc3dc10b	-0.01158167
11	0xbbb62aec	-0.005559316
12	0x3ba68de6	0.0050828336
13	0xbd772b60	-0.0603441
14	0xbb2262b3	-0.0024778068
15	0xbdb8754e	-0.09006749
16	0xbca619bf	-0.020275949
17	0xbc2c33fe	-0.010510443
18	0x3c8f8340	0.01751864
19	0x3ba8fce8	0.005157102
20	0xbd657f6f	-0.056029733
21	0xbc9b116e	-0.01892921
22	0xbb5c4b29	-0.0033614135
23	0xbd004c95	-0.031323034
24	0xbcdf8f61	-0.027290048
25	0x3c739df5	0.014869203
26	0xbc284de1	-0.010272474
27	0xbc1c4bd0	-0.0095395595
28	0xbc959696	-0.018260282
29	0xbcf43419	-0.029809998
30	0x3cf9672a	0.0304447
31	0xbb7d31b3	-0.003863436
32	0xbc174671	-0.009233103
33	0xbd69448f	-0.05695015
34	0x3cc01bdc	0.023450784
35	0xbd725bfa	-0.059169747
36	0xbd302e97	-0.04301318
37	0x3c1128a2	0.008859785
38	0xbc052df8	-0.008128636
39	0xbd82a86f	-0.063797824
40	0xbbfe8be0	-0.0077681392
41	0x3d28ec12	0.04124076
42	0xbd4e32fc	-0.05034159
43	0xbd031f8b	-0.032012504
44	0x3c417c2d	0.011809391
45	0xbd6e3038	-0.058151454
46	0xbc625535	-0.01381426
47	0x3d963ed8	0.07336205
48	0xbb3fdac8	-0.002927469
49	0xbc1eaba2	-0.009684475
50	0xbc23129a	-0.009953165
51	0x3d1ee95d	0.03879677
52	0x3d1a25e1	0.03763378
53	0x3c31d0ec	0.0108530335
54	0xbca02fc0	-0.019554019
55	0x3cfe38c7	0.031032933
56	0x3b3fb659	0.0029252975
57	0xbc3eee0f	-0.011653437
58	0x3ca918d8	0.02064173
59	0xbb910563	-0.004425691
60	0x3cd06c5b	0.025442293
61	0xbd2355ab	-0.03987662
62	0xbd94dede	-0.07269071
63	0x3d017cec	0.031613275
64	0x3d94349c	0.07236597
65	0xbb8a412e	-0.004219196
66	0x3cd19e5e	0.02558821
67	0xbc45b4ba	-0.012067014
68	0xbbb97990	-0.0056602433
69	0xbd1e8e0b	-0.03870968
70	0xbb9ff0b5	-0.0048809894
71	0x3d61e826	0.055153035
72	0x3cecaf76	0.02889226
73	0x3d920fc5	0.07131914
74	0x3cb91664	0.022593684
75	0x3d881864	0.06645277
76	0x3cf275b3	0.029597139
77	0x3caabc09	0.020841615
78	0xbd178745	-0.036994237
79	0x3cc2fd18	0.023802325
80	0xbd678116	-0.05651959
81	0xbd45c15f	-0.048280116
82	0x3d4584df	0.04822242
83	0xbc2fe0ec	-0.010734778
84	0xbbffc576	-0.0078055216
85	0x3aeab5ec	0.0017907
86	0x3d894838	0.06703228
87	0x3cc28422	0.023744646
88	0x3c223c59	0.009902083
89	0x3ca1f8db	0.019771984
90	0xbb937466	-0.0044999598
91	0xbbcad781	-0.006190241
92	0x3d5c8371	0.05383629
93	0x3c089418	0.00833609
94	0xbd024baa	-0.03181044
95	0xbca5d8e3	-0.020245021
96	0x3d2c4b45	0.04206397
97	0x3ccab4c1	0.024744393
98	0x3d2cc064	0.042175665
99	0xbcb5af3d	-0.022178287
100	0x3b8dd8c4	0.004328819
101	0x3d5ba190	0.053620875
102	0xbcaef305	-0.021356115
103	0xbcf88c2b	-0.030340275
104	0x3d2ace2f	0.04170054
105	0x3bec270b	0.0072068027
106	0x3b1e005d	0.0024109103
107	0xbcf2235a	-0.029557873
108	0xbcc1825b	-0.023621729
109	0x3d26d4a5	0.040730137
110	0xbb9e8791	-0.004837938
111	0x3d1c3f0e	0.03814607
112	0x3d7639c6	0.06011369
113	0x3ba9016f	0.0051576416
114	0x3d40c2f3	0.047060918
115	0x3cbc0506	0.022951614
116	0x3d99bb35	0.0750641
117	0xbd29f6d5	-0.041495163
118	0x3d2ea82e	0.042640857
119	0x3d3e6b7e	0.04648923
120	0xbc43b33e	-0.01194459
121	0x3bb34090	0.005470343
122	0x3d5b5c17	0.05355462
123	0xbc7cf12b	-0.015438358
124	0x3d54c761	0.051947955
125	0xbd28da54	-0.04122384
126	0xbc4cc738	-0.012498669
127	0xbcf990ca	-0.030464549
128	0x3db0f2d3	0.08640065
129	0x3d2c55fb	0.042074185
130	0x3cbe88ae	0.023258533
131	0xbcfa921e	-0.030587252
132	0xbcc4bd11	-0.024015935
133	0x3cb449d7	0.022007866
134	0xbd244431	-0.040104095
135	0x3c550d9e	0.013003735
136	0x3d90967f	0.07059955
137	0x3c620d00	0.013797045
138	0xbd1ec4a4	-0.03876175
139	0x3d522646	0.05130603
140	0x3ba7a26f	0.005115799
141	0x3ca11255	0.019662062
142	0x3b01f1c4	0.0019827941
143	0x3b62133d	0.003449633
144	0x3cab6368	0.020921424
145	0x3cfd0aa2	0.03088886
146	0xbcb2f8f5	-0.021847228
147	0xbdb51602	-0.08842088
148	0xbd1d1744	-0.038352266
149	0x3d14066f	0.036138948
150	0x3d1ab647	0.03777149
151	0xbd0caf46	-0.03434684
152	0xbc9afbad	-0.018918836
153	0xbd5b24ef	-0.05350202
154	0xbc6c9054	-0.014438707
155	0xbd3edce6	-0.046597384
156	0x3c47b378	0.012188785
157	0xbd170eeb	-0.03687946
158	0x3d619494	0.055073336
159	0xbcd890ac	-0.026436172
160	0x3cd594f6	0.026072007
161	0x3d61c9bf	0.05512404
162	0x3b1d2480	0.0023978055
163	0xbc1c3fe0	-0.009536713
164	0xbd81fbd2	-0.06346859
165	0x3d068058	0.032837242
166	0x3cec6ade	0.028859552
167	0xbbfdce04	-0.0077455062
168	0x3baa4a4f	0.0051968466
169	0x3d5a0ffe	0.053237908
170	0x3d641f1b	0.055693727
171	0x3d38f5b5	0.0451562
172	0x3d83f70d	0.064436056
173	0xbc87d85d	-0.016582662
174	0xbb895215	-0.004190693
175	0xbd302776	-0.043006383
176	0x3ca69e7d	0.020339245
177	0x3ce863c5	0.028367886
178	0xbd5ea22b	-0.054353874
179	0x3cc16f17	0.023612542
180	0x3b2587a6	0.0025257855
181	0xbca2e17a	-0.019882906
182	0xbc98f5e1	-0.018671932
183	0x3d67ac41	0.05656076
184	0x3d5780de	0.05261313
185	0xbb3a8c4b	-0.0028464969
186	0x3c8c4ee9	0.017127471
187	0x3c7028c4	0.014658157
188	0xbce8efe8	-0.028434709
189	0xbd382697	-0.044958677
190	0x3ce0efab	0.027458033
191	0xbd47d141	-0.048783544
192	0x3cf70390	0.030153066
193	0xbcb25240	-0.021767735
194	0x38c9a883	9.6158146e-05
195	0x3d181b03	0.037135135
196	0x3d33bcf1	0.04388136
197	0xbd484c6d	-0.04890101
198	0xbc954a48	-0.018223897
199	0xbd19b458	-0.037525505
200	0xbd64f85a	-0.05590091
201	0xbd4f696a	-0.05063764
202	0xbb5b3ab9	-0.003345175
203	0xbc240776	-0.010011544
204	0x3d557c19	0.052120302
205	0x3d3f21f7	0.04666325
206	0x3cd93566	0.02651472
207	0x3d8aa431	0.06769598
208	0xbcfc022d	-0.030762756
209	0x3d22cfc2	0.039748915
210	0x3c88ab19	0.016683148
211	0xbd034399	-0.032046888
212	0xbd46862f	-0.04846781
213	0x3d27cd9f	0.04096758
214	0xbce3397c	-0.027737372
215	0x3b94b970	0.0045387074
216	0xbc806571	-0.015673371
217	0x3cfaf2b8	0.030633315
218	0xbd2d616d	-0.04232924
219	0x3d8716af	0.065961234
220	0xb968dc8b	-0.00022207403
221	0xbd17e658	-0.037084907
222	0x3d18f099	0.037338827
223	0xbbafb6f4	-0.005362386
224	0x3d512ac4	0.051066175
225	0xbbd9f8d2	-0.006651976
226	0x3cc10c8a	0.02356555
227	0xbbaf5ead	-0.0053518624
228	0x3d815442	0.06314899
229	0xbca21a34	-0.019787885
230	0xbd8c6b5a	-0.06856413
231	0xbdc8b0c7	-0.097993426
232	0x3d12d244	0.035845056
233	0xbcafd76c	-0.021465026
234	0x3c1d97d7	0.009618721
235	0x3ceca089	0.028885143
236	0xba1e37e2	-0.0006035549
237	0xbcd3a1da	-0.025834013
238	0x3cb0bf75	0.021575669
239	0xbd01295b	-0.03153358
240	0xbd1d3973	-0.038384866
241	0xbce2f9a8	-0.027706936
242	0xbd5031c7	-0.05082872
243	0xbccca2e9	-0.024980025
244	0xbd0ec531	-0.034856025
245	0x3d84ccc6	0.0648437
246	0xbd48398a	-0.048883
247	0xbd148d5f	-0.036267634
248	0xbba94843	-0.005166085
249	0xbd2ff33a	-0.04295657
250	0x3d73d980	0.059533596
251	0x3cbf131e	0.023324545
252	0xbd2a4f99	-0.041579816
253	0x3d7fb4bc	0.06242822
254	0xbc88a7d4	-0.01668159
255	0xbcb43006	-0.021995556

bias f4 [264]
0	0x3bee651d	0.0072752372
1	0x3d6547ae	0.055976562
2	0x3d48f61c	0.049062833
3	0x3c92a0b3	0.017898893
4	0x3b7abb2b	0.0038258533
5	0x3d0890e9	0.033341322
6	0xbc6d62ea	-0.014488915
7	0x3cb87538	0.022516832
8	0xbd19d37a	-0.037555195
9	0x3d417999	0.047235105
10	0xbd143fa1	-0.036193494
11	0xbd6c9921	-0.057763223
12	0x3cec792c	0.028866373
13	0xbc5d921a	-0.013523603
14	0x3c0993d2	0.0083970595
15	0xbcfcf301	-0.030877592
16	0x3c8e0a9c	0.017339043
17	0x3d8132ed	0.063085414
18	0x3c286e72	0.010280238
19	0xbc6b2cd2	-0.014353948
20	0xbc7bde67	-0.015372849
21	0xbcd4618d	-0.025925422
22	0x3d429422	0.04750455
23	0xbb300921	-0.002686091
24	0xbd914d8d	-0.0709487
25	0xbd46aa2c	-0.048502132
26	0x3c99ec4e	0.018789437
27	0xbb3d2e20	-0.0028866604
28	0xbcbfcfc5	-0.023414502
29	0x3d156bda	0.03647981
30	0x3d28a3db	0.04117189
31	0xbd0ef1a3	-0.03489841
32	0x3cedabfe	0.029012676
33	0x3c9de685	0.01927496
34	0xbc6207a4	-0.013795767
35	0xbd54480f	-0.051826533
36	0xbcc3ddbe	-0.023909446
37	0x3ca4bb84	0.020108946
38	0xbb786a54	-0.0037905173
39	0xbcfdcf4c	-0.030982636
40	0x3b22c72d	0.0024837956
41	0x3c865bc1	0.016401174
42	0x3cb00b6b	0.02148982
43	0xbd7cd2d6	-0.061724506
44	0x3c508dcb	0.012729119
45	0xbd9e8bac	-0.07741484
46	0x3d24bbc4	0.04021813
47	0xbc42d518	-0.011891626
48	0xbd5fbf12	-0.05462558
49	0x3cc4d5af	0.024027674
50	0x3c7d6f52	0.015468435
51	0xbcc794e0	-0.024362981
52	0x3bb6a07c	0.0055733304
53	0x3b0d4b9b	0.0021559957
54	0xbd0d8f8e	-0.034560733
55	0x3c3cd354	0.011524994
56	0x3caffc57	0.02148263
57	0xbd1f2673	-0.038855027
58	0xbaf6a025	-0.0018816037
59	0xbb0005d4	-0.0019534724
60	0xbd6d8113	-0.057984423
61	0x3d005271	0.031328622
62	0xbd740990	-0.059579432
63	0xbd1c919c	-0.0382248
64	0xbc9ab501	-0.018885138
65	0x3cca8c27	0.024725033
66	0x3abff2e4	0.0014644531
67	0xbd6af6ea	-0.05736438
68	0xbc1cc99c	-0.009569552
69	0x3c323476	0.0108767655
70	0x3c043fc3	0.008071843
71	0x3c8cb5a4	0.017176457
72	0xbd1462fd	-0.036227215
73	0xbd66c645	-0.05634143
74	0x3b73b5cf	0.0037187224
75	0x3bea06fa	0.007141945
76	0x3cda99bd	0.026684636
77	0xbd835a4c	-0.06413707
78	0xbc17dfe9	-0.009269693
79	0xbd9de589	-0.07709796
80	0xbb5551e0	-0.0032550022
81	0xbd41bbed	-0.04729836
82	0xbd8b8809	-0.06813056
83	0xbcf4b99d	-0.029873664
84	0xbadb52a0	-0.0016732998
85	0xbd89aa71	-0.06721962
86	0xbd866aa6	-0.0656331
87	0xbc1979c7	-0.009367413
88	0x3c626927	0.013819016
89	0xbcc2f2e3	-0.023797458
90	0xbd727b90	-0.05919987
91	0xbd50ccfe	-0.050976746
92	0x3d191324	0.03737177
93	0xbb4db5cc	-0.0031388877
94	0xbc79fbcf	-0.01525779
95	0xbccf2f5a	-0.025291134
96	0xbd3e2d99	-0.046430204
97	0x3ca64c0a	0.02029993
98	0xbd31b20f	-0.0433827
99	0x3d254bdc	0.04035555
100	0x3c52fb2a	0.012877265
101	0x3caffc8b	0.021482727
102	0x3d35262a	0.04422585
103	0xbc13474a	-0.008989165
104	0x3d33afb0	0.04386872
105	0x3d022979	0.031777833
106	0x3cc4dedd	0.02403205
107	0xbb78334f	-0.003787238
108	0xbc8140e8	-0.01577802
109	0xbcb0b045	-0.021568427
110	0xbc34af35	-0.011028101
111	0x3c0cb6c4	0.008588497
112	0xbc56d2c2	-0.013111772
113	0xbd2e581c	-0.042564496
114	0xbd603391	-0.054736678
115	0x3d1929bd	0.03739332
116	0x3c547117	0.012966416
117	0xbd8868db	-0.066606246
118	0xbb89cef4	-0.004205579
119	0x3b61c508	0.0034449715
120	0xbd6e33b0	-0.05815476
121	0xbd35fbcf	-0.044429597
122	0x3d0beac2	0.03415943
123	0xba2fcf52	-0.00067066133
124	0xbb8e36be	-0.004340022
125	0x3d08ac01	0.03336716
126	0x3bd8c1f2	0.006614917
127	0x3b05aae2	0.0020396044
128	0x3d20e11b	0.039277177
129	0x3cf21185	0.02954937
130	0xbd265946	-0.04061248
131	0xbd82370b	-0.06358155
132	0x3d22dc01	0.039760593
133	0xbcc56118	-0.02409415
134	0xbd7bd361	-0.061480884
135	0x3c899026	0.016792368
136	0x3cfc6b14	0.030812778
137	0x3ba63bf5	0.0050730654
138	0xbd463820	-0.04839337
139	0x3c764f13	0.015033501
140	0xbd1330e7	-0.03593531
141	0xbd1ef887	-0.038811233
142	0xbd55bbe0	-0.052181125
143	0xbc897041	-0.01677716
144	0x3c936cfd	0.017996306
145	0xbd50b621	-0.05095494
146	0xbc9a4bb7	-0.018834932
147	0x3bc00d29	0.005860944
148	0xbd13a156	-0.036042534
149	0xbd8b09ab	-0.067889534
150	0xbd83557b	-0.064127885
151	0x3cbe2fe4	0.023216195
152	0xbcfcbd27	-0.030851914
153	0x3cd966a6	0.026538204
154	0xba032e67	-0.0005004168
155	0x3d6f7c0a	0.058467902
156	0xbc89b23e	-0.016808625
157	0xbae7f31a	-0.0017696351
158	0x3d1856a2	0.037191994
159	0x3d0f41f2	0.034975
160	0xbced0d92	-0.028937135
161	0xbcce94a3	-0.02521736
162	0x3d072d95	0.033002455
163	0xbce4ed66	-0.027945232
164	0xbd4b904b	-0.049698155
165	0xbc7d1293	-0.015446323
166	0xbd599add	-0.053126205
167	0x3d0337bb	0.03203557
168	0xbd7d6f82	-0.06187392
169	0xbb465f61	-0.0030269253
170	0x3cf33d4f	0.02969232
171	0x3c124d75	0.0089296
172	0x3c52c2ab	0.012863795
173	0x3cafacb7	0.021444662
174	0xbd1c7a08	-0.038202316
175	0x3cdb7fbc	0.026794307
176	0xbcb8b521	-0.022547306
177	0xbc8d0803	-0.017215734
178	0xbd616abf	-0.05503344
179	0x3ca9b1f9	0.020714747
180	0xbc0b22c8	-0.008492179
181	0xbb0d3f86	-0.0021552755
182	0x3b8ad2b3	0.004236543
183	0x3cb9b3bb	0.02266871
184	0xbd4948d6	-0.049141727
185	0x3d157571	0.036488954
186	0xbbb6eb23	-0.0055822297
187	0x3d18c647	0.037298467
188	0xbd3247cd	-0.043525506
189	0x3cda09b7	0.02661596
190	0xbd60045b	-0.054691654
191	0x3ce64384	0.028108366
192	0xbcbdf40b	-0.023187658
193	0x3cb6ad27	0.022299362
194	0xbd8c09a7	-0.068377785
195	0xbd80612b	-0.06268533
196	0x3c09880c	0.0083942525
197	0xbd65b3b0	-0.056079566
198	0x3c82d0c2	0.015968684
199	0xbd95356a	-0.072855785
200	0xbc143982	-0.009046914
201	0xbd3ca139	-0.04605219
202	0x3a1ace16	0.0005905343
203	0x3d30ef91	0.04319722
204	0xbd5eee70	-0.05442661
205	0xbd75f810	-0.060051024
206	0xbd5cc0e2	-0.053894885
207	0x3c4ab852	0.012373047
208	0x3d0c270b	0.03421692
209	0x3c19dfa4	0.009391699
210	0xbd826c14	-0.063682705
211	0xbd6a712e	-0.057236843
212	0xbcf758be	-0.030193683
213	0x3c3c3cd8	0.011489116
214	0xbcb2a6aa	-0.021807987
215	0xbcfbd977	-0.030743344
216	0x3a2bc0fb	0.00065518887
217	0xbd72a65d	-0.059240688
218	0x3cc6a316	0.024247687
219	0xbd5a16e2	-0.05324448
220	0xbd95f7bd	-0.07322643
221	0xbd34272f	-0.04398268
222	0x3d37bdaf	0.04485863
223	0xbcdd3433	-0.02700243
224	0x3c98bbeb	0.018644294
225	0xbd5e31a6	-0.054246567
226	0xbd0b3369	-0.033984575
227	0x3cb9fa82	0.02270246
228	0xbca2c5bc	-0.019869678
229	0xbd2dd238	-0.04243681
230	0xbd5e1778	-0.0542216
231	0xbd998412	-0.074958935
232	0xba218206	-0.00061610376
233	0xbc3858ff	-0.011251687
234	0x3c1e2581	0.009652496
235	0x3c80c9fb	0.015721312
236	0xbbd9eb38	-0.0066503547
237	0xbd931332	-0.071813956
238	0x3c35f502	0.011105778
239	0xbcf49eb7	-0.029860837
240	0xbd4c1c6c	-0.049831793
241	0xbcbe3ac3	-0.02322138
242	0x3d158e7e	0.036512844
243	0xbbd58ac8	-0.006516788
244	0xbb04b69b	-0.0020250443
245	0x3ca99ceb	0.020704707
246	0xbcf2147d	-0.029550785
247	0xbd3c53b2	-0.045978256
248	0xbcffe1c2	-0.03123558
249	0x3c0b0c55	0.008486827
250	0xbd388d9a	-0.045056917
251	0x3ce4b1ad	0.027916754
252	0xbd84d30e	-0.06485568
253	0x3ceb4e6c	0.028723918
254	0x3d31605b	0.043304782
255	0xbd85af3e	-0.065275654
