code/utils/pepland_utils/cpkt/linear_pred_bonds/data/model.pth (torch, 6247 bytes, 2 tensors)

weight f4 [4, 300]
000000 8a 0d bd 3b 74 20 b1 bb 9c ad db 3c ae 80 2e bc
       0.0057694362 -0.00540548 0.026816182 -0.010650797
000010 b3 96 ff 3b e2 7d 45 3d f2 e9 06 3d aa 10 36 bd
       0.007799947 0.048215754 0.03293795 -0.044449486
000020 2a b7 48 bd 13 13 2a 3d 1e 60 08 bd 97 f9 9f 3c
       -0.049002804 0.041522097 -0.03329479 0.019528193
000030 21 98 37 bd 7d 44 95 bc 23 32 0e bd 6d 17 95 3c
       -0.044822816 -0.018221134 -0.034715783 0.018199647
000040 3c 90 87 bb 7b 88 2b bc 0b 81 68 bd 5d 0e 49 bd
       -0.004137067 -0.010469551 -0.05676369 -0.049085964
000050 86 ae e9 bc ad 17 b7 bc ff 93 2c 3b 97 21 37 3d
       -0.028525602 -0.022350157 0.002633333 0.04470977
000060 69 27 5e bd e9 08 50 3d 51 16 ee bc 8c 9b 17 bd
       -0.054236803 0.050789747 -0.029063376 -0.037013575
000070 b6 8a 26 bd 6c b4 eb 3c 3e f3 4b 3d 49 2d 48 bd
       -0.04065963 0.028772555 0.04979252 -0.048871312
000080 27 bc 89 bc 2b 7a 65 bc 8a 45 1c bd 2f 5a 35 3d
       -0.01681335 -0.014006178 -0.038152255 0.04427546
000090 c1 76 1f 3d 89 98 a0 bb e3 26 51 3d a0 c8 f1 bc
       0.038931612 -0.004900996 0.051062476 -0.02951461
0000a0 1b 29 61 bd 45 58 e3 bc 66 5a a5 36 4c c1 59 bd
       -0.05497084 -0.027752051 4.927907e-06 -0.053162858
0000b0 62 13 2a bd 97 ea cd bc f5 f6 71 3c 19 52 37 3d
       -0.04152239 -0.025136275 0.014768352 0.04475603
0000c0 6f 05 34 3d 2d 52 d5 ba 0f dd 14 3d 12 aa 34 3d
       0.043950494 -0.0016275101 0.03634363 0.044107504
0000d0 be 7c c0 3c 8d 52 41 3c 10 bb 2b 3d 25 79 90 3c
       0.023496982 0.011799467 0.041926444 0.017635891
0000e0 15 7b cb 3b 0c 47 5c 3d f8 0e 6c 3d 97 a2 c9 bc
       0.006209741 0.053778693 0.057631463 -0.024613662
0000f0 d8 d3 54 bd 66 d4 04 bd 02 08 a1 3c 8f 6b 8c 3b
       -0.051959842 -0.03242912 0.019657139 0.004285283
000100 0b f6 63 bc ea 92 ed bc 82 ba 9c 3c 9e e8 cc bc
       -0.013913642 -0.029000718 0.019131903 -0.025013264
000110 dc f8 3b bd 78 06 c2 bc a4 e4 65 bd a3 a4 46 bd
       -0.045891628 -0.023684725 -0.05612625 -0.048496854
000120 ce f5 28 bd 53 c1 52 bd e0 c6 2f bd 47 81 bf 3c
       -0.041250043 -0.0514539 -0.04291427 0.023377074
000130 80 d7 05 3d 3b 95 11 3c a1 fc 6a bd fd 36 01 bd
       0.03267622 0.008885677 -0.057369832 -0.03154658
000140 1d cd 3a 3b b2 06 36 3d 69 0b 3b 3d 9c bf 5e bd
       0.0028503605 0.04443998 0.04566518 -0.05438195
000150 b5 62 f6 3c 39 f5 1a bd 99 e6 52 bd b5 93 5b bd
       0.030076364 -0.03783152 -0.051489446 -0.05360766
000160 eb 6c bd 3c 94 df 96 ba 1a 37 68 3c 08 12 bc bc
       0.023123225 -0.0011510723 0.0141732935 -0.022957817
000170 73 d4 d7 bc 75 31 5b 3d 03 99 56 3d 2f ad ed bc
       -0.02634642 0.053513963 0.052392017 -0.029013244
000180 73 83 24 bd 02 b3 9b bc f7 f3 b7 3c 6c 67 12 bd
       -0.040164422 -0.019006256 0.022455199 -0.035743162
000190 9f 6e cc 3c 5f 82 9d bb 18 c9 29 bd 58 e2 40 bb
       0.024955092 -0.004806801 -0.041451544 -0.0029431786
0001a0 da b3 c0 bc 19 2d 63 bc f2 a8 52 bd 85 e0 33 3d
       -0.02352326 -0.013865733 -0.05143065 0.04391529
0001b0 7f dd bf 3b e4 1b 28 3c b3 c5 9a 3a 46 d7 1d 3d
       0.005855262 0.010260556 0.0011808187 0.03853538
0001c0 24 67 97 bc da 11 af 3c fb 07 13 bd 52 8b 63 3c
       -0.018481798 0.021370817 -0.035896283 0.013888197
0001d0 ac 21 3e bd e7 74 5f bb 41 a8 a0 bc 33 cf 81 3c
       -0.04641883 -0.003409678 -0.01961148 0.01584587
0001e0 e7 2c 1b 3c 10 71 69 3b 68 ef 49 bd 3f 09 cf bc
       0.009471155 0.003562037 -0.04930058 -0.025272964
0001f0 e6 65 e2 bc c8 9d 41 3c b2 e1 62 3d bd 0f b7 3c
       -0.02763648 0.011817403 0.05539102 0.022346372
000200 fb 89 5e 3c 78 a9 86 bc f5 41 f6 3c c2 41 5c bb
       0.013582702 -0.01643823 0.030060748 -0.003360853
000210 4b 3f 49 3d c8 c6 db 3c b3 3e 19 bd e1 24 58 bd
       0.049132627 0.026828185 -0.03741331 -0.052769545
000220 8a 99 5b bd de 9f b4 bb ab 1b eb bc 88 74 f2 bc
       -0.053613223 -0.0055122217 -0.028699717 -0.029596582
000230 87 66 55 bd 2a b6 29 bd 90 e2 55 bd 66 5f c0 bb
       -0.05209973 -0.04143349 -0.05221802 -0.0058707474
000240 00 b7 01 bd d9 a0 20 3d 86 ed 26 bd 7d 5c 5d 3d
       -0.031668663 0.039215896 -0.040753864 0.05404328
000250 05 73 ec bb da ef d9 3c d1 7f 66 bd 45 02 7d bb
       -0.00721586 0.026603628 -0.05627424 -0.003860609
000260 fc 5a f2 3c 85 15 a0 3c 79 7b 00 3d d8 9b 65 3d
       0.0295844 0.019541511 0.031367753 0.056056827
000270 2e d2 08 bd b5 d7 88 bb d6 7a 07 bd 26 e4 d8 bc
       -0.033403568 -0.004176105 -0.03307613 -0.026475977
000280 5b 2c ef bc 61 38 d6 3c f7 c6 38 3d 55 4a eb bc
       -0.029195955 0.02614993 0.045111623 -0.028721968
000290 73 57 fb bc 8f d1 10 bd 0d cb 35 3c 72 19 0c 3d
       -0.030681347 -0.0353561 0.011095774 0.034203954
0002a0 0c 9b 2a 3c 7b 97 32 bd a8 c8 63 3d 39 d7 bd 3c
       0.010412943 -0.043601494 0.055611283 0.023173915
0002b0 4d e1 5c 3d 13 2e 0b 3c b0 10 5a bc fd e2 80 bc
       0.0539258 0.008494872 -0.013309643 -0.015733236
0002c0 55 3b 8d 3c 94 56 39 bd 3b 76 fd 3c 35 2e 80 3c
       0.017240206 -0.045248583 0.030940166 0.015647033
0002d0 c1 a3 81 bc b0 fd 90 3c 38 f6 36 bd 0e 64 c3 3c
       -0.015825154 0.017699093 -0.044668406 0.02385142
0002e0 d4 d4 1a bb f0 ff 3e 3d fc b1 33 3d 6f be d8 bc
       -0.002362539 0.0466308 0.04387091 -0.026457993
0002f0 58 02 0a 3d 0c 7c 85 3c 8d 24 1e 3c 04 c5 13 bd
       0.03369364 0.016294502 0.009652269 -0.03607656
000300 8c c1 e9 3c e2 f7 ba bc 19 34 7c bc 7e 3d 52 bd
       0.028534673 -0.022823278 -0.01539328 -0.051328175
000310 30 d4 58 3b 89 0c 2f 3d 0a 62 ee bb 9a 41 ea ba
       0.0033085458 0.042736564 -0.0072748708 -0.0017872334
000320 37 0d a2 bb 12 d3 a7 3c a9 8b 16 3d db 9f 26 3d
       -0.004945423 0.020486388 0.036754284 0.040679794
000330 c2 8a 04 3b 4f 6c 87 3c 65 67 8f 3c a4 6b 67 3c
       0.0020224308 0.016531138 0.017505357 0.014124785
000340 65 ff 8f 3c f6 88 20 bd d8 09 2e 3d 45 e9 ca bc
       0.017577836 -0.039193116 0.042489856 -0.024769435
000350 89 af cf bc 3b 49 2e bd 60 64 94 bc 28 cc 69 3d
       -0.025352256 -0.042550307 -0.018114269 0.057079464
000360 40 8d 21 bd de e7 6e 3b 63 ac da bc 95 30 2f 3d
       -0.039441347 0.0036454122 -0.026693529 0.04277094
000370 25 19 6a 3d e0 68 25 bd 99 ef b0 3c 87 77 7e bc
       0.057152886 -0.04038322 0.021598624 -0.015531427
000380 74 33 f1 3c dd fc cd bb 43 a5 38 3d fe 5f 2a bd
       0.02944348 -0.006286247 0.04507948 -0.04159545
000390 49 5c 1e 3d 81 92 79 ba 58 8d 63 bd ad 39 a5 bc
       0.03866223 -0.0009520427 -0.055554718 -0.020169104
0003a0 bf 24 91 3c 51 dd 58 bd b8 13 64 3c b7 b1 3b bc
       0.017717717 -0.05294544 0.013920717 -0.011455945
0003b0 ca 1c 6c 3c 33 30 ee bc 35 67 34 bd f5 8c b9 3c
       0.014411161 -0.029075718 -0.04404374 0.022650221
0003c0 10 e8 f6 bc 52 b9 b7 3b 27 3d 0f 3d 5c 20 37 3d
       -0.030139953 0.0056068087 0.03497043 0.044708595
0003d0 ca af 4c bc b7 bf 3e bd 63 13 64 3d 45 ca 62 bd
       -0.012493083 -0.046569552 0.05568255 -0.05536868
0003e0 d5 53 1f 3b 0b a0 d1 bc 84 6a c0 3c 55 be ba bb
       0.0024311442 -0.02558901 0.02348829 -0.005698959
0003f0 ee a2 3d 3c e7 b0 5a bd dc 63 43 3d 34 5f 32 3d
       0.01157449 -0.053391363 0.047702655 0.043547824

bias f4 [4]
000000 c6 53 e1 bc 7d ec 80 3c e5 4a 5c bd 4e 60 5d 3d
       -0.027505767 0.015737766 -0.053782362 0.05404692
