code/utils/pepland_utils/cpkt/linear_pred_atoms/data/model.pth (torch, 144743 bytes, 2 tensors)

weight f4 [119, 300]
00000000: a913 c73b b455 bf3c b766 72bd 1199 08bd
00000010: ccdd e1bc 299f 9a3c 1910 4abc 05e0 4e3d
00000020: 9213 2abc 6492 a43c 4484 21bc b2b7 2cbc
00000030: 700f 34bd b074 1bbd 1575 e3bc ff72 243c
00000040: 6697 093d ead7 213d fdea 41bd faef f1bc
00000050: f08e 3d3c 8dfb 1a3d b042 98bc 32c5 563d
00000060: c23f 003b 4b0f b63b 8be6 383d 85d3 5fbd
00000070: fa66 30bd b5dd 47bb b6a7 0abd 5721 673d
00000080: 9fdb 0cbd db2d 78bc 8ec0 30bd f6fc 7dbd
00000090: c00f 33bd 0723 2f3d 783f b43c 7fb1 183d
000000a0: 1592 fabb ce11 9bbc f604 113b 5e93 66bd
000000b0: d256 04bd 4929 21bd b870 d23c c0a8 df3c
000000c0: 60e6 81bc ee84 29bc bede cc3c c0ee 473d
000000d0: 89c6 493c a865 5b3c 142a 063d a279 c7bc
000000e0: 1ca9 093c 0b45 5bbd 8284 08bd e9d7 9bbc
000000f0: b645 843c e42b e83c 0bff 37bd cf03 763c
00000100: 58cb 1c3d 9aaa 313b da62 443b e7b8 c53b
00000110: cd22 013d 0963 5c3d 2857 45bd d899 3cbc
00000120: f2b0 7e3c c335 253d 5d41 743d 90fa 7c3d
00000130: 3339 e23a a21f 49bd e778 4d3c 1369 21bd
00000140: 3bd2 53bd 9490 713d 77f8 4e3d 60ff 55bd
00000150: 4141 353b 326e 243b 19ea 85bc 424c 10bd
00000160: 3df9 983c 8915 c0bc 1a28 033d 3a33 b93c
00000170: cc0b 053d 51f2 f93c 0040 8cbd 22f7 14bd
00000180: a46a af3c 5fb8 ab3c faaf 18bd 3d3e afbc
00000190: 2ae2 683d db16 343d 060a 77bc 107c adbc
000001a0: dac9 41bd 2e54 37bc d774 1dbd fbf1 5cbd
000001b0: 22eb 49bc 423a bdba 5edc 73bc 5567 bc3c
000001c0: a000 ccbc c5a5 533d 1d85 2a3d fc0a 1ebd
000001d0: 52cc 2dbc 1274 fa3b 4f78 953c a63f db3a
000001e0: 5e71 a53c c35c d73b 5836 1cbd 1320 a73c
000001f0: fe4a 42bd efc7 2fbd 634c a4bc 3de8 c3bc
00000200: 4d5f f3bc d730 1dbd 995f 17bc e96f bd3c
00000210: 0e2b 07bd d3c8 933a 708c 243d 40ff 943a
00000220: cc38 98bb b0c8 83bc 8c3e a33c 339d 1f3d
00000230: 767c 763d 52ed 3b3d be12 893d 2ae3 463b
00000240: e75b 3cbd 43a2 00bd dc06 4e3d 435c d43b
00000250: 14bd dbbc 1610 1dbd e5c4 3bbd 89ac 6dbd
00000260: a79b c5bb 06b3 2d3d 2a6e be3c e4c4 7abd
00000270: c1d9 323d cd77 56bd a387 90bc 1ff9 02bd
00000280: 4105 05bb 4d3a 1139 3a4d 79bd f401 77bd
00000290: fcd9 1cbc 6525 d43b cafa 11bd fcc8 013d
000002a0: 0797 78bd 16d2 39bc bb75 5e3d 268f 0dbd
000002b0: 700b 3d3d 5d78 fc3c fb7b 7dbd b703 333d
000002c0: fa09 9fbc 1354 9cbc 17f0 5a3d 124d 5bbd
000002d0: 87bf 833c 7c41 90bc d4aa 573d 1657 9b3c
000002e0: ee67 133d 9286 ca3c a258 84bb beed 9ebc
000002f0: cede 2dbd aace b93c 1aab 0d3d fed8 483d
00000300: 0507 07bd bea2 5b3c 8479 49bd 8224 20bd
00000310: 3891 e1bc deb2 c83c 3b61 00bd 8e52 103c
00000320: 76da 98bb ebe4 403d 1fd8 04bd 817c 3dbd
00000330: 5a45 1fbd d1f8 143d dd99 01bd 2c21 5c3d
00000340: 297f 713c 74a8 57bb 9a8e e2bb 8c69 b0bc
00000350: 6af1 873c 67e0 19bb 854b 0a3c a476 453a
00000360: def7 27bd 032e c9bc f365 283d 5065 26bd
00000370: 3b6d bdba c49a 443d ae99 4d3c 7987 a2bb
00000380: b525 7cbd d044 183d cb66 09bd 01ae 05bc
00000390: 7986 debc f4b1 91bc fc62 10bc 88cd 163d
000003a0: b1e3 5f3c 6534 233d 0097 f83c 69aa 38bd
000003b0: 9753 023d bc4e 03bd 90d6 80bc 3868 d73c
000003c0: 542a 763c ee0f 2a3d 068b c3bc ccb2 7539
000003d0: 6a27 c43c c9f8 58bd 541c 433d 1686 14bd
000003e0: a141 f2bb cbe2 15bc 3adb b1bc c82e 3d3c
000003f0: 4df0 593d 09a7 bbbb 3d1f 1dbd 697c 90bc
0.0060753417 0.023356296 -0.059179988 -0.0333491 -0.027571581 0.018874722 -0.01233294 0.05050661
-0.0103806425 0.020089336 -0.009858195 -0.010541843 -0.043960035 -0.03795308 -0.02776579 0.010037183
0.03359165 0.039512552 -0.047343243 -0.029533375 0.0115697235 0.037837554 -0.018586487 0.052434154
0.0019569253 0.0055560223 0.045141738 -0.05464508 -0.043066956 -0.0030497138 -0.033851348 0.05642828
-0.034389134 -0.015147652 -0.043152384 -0.06200882 -0.043716192 0.042758014 0.02200292 0.03727865
-0.007646809 -0.018929388 0.00221282 -0.056292884 -0.03230936 -0.039346013 0.025688514 0.027302146
-0.015856922 -0.010346634 0.025008556 0.048811674 0.012315401 0.013390936 0.032754973 -0.024349991
0.008402135 -0.05353264 -0.033329494 -0.019023852 0.016146522 0.028341241 -0.044920962 0.0150155565
0.03827986 0.0027109743 0.0029966147 0.006034005 0.03152733 0.053805385 -0.04817882 -0.011511289
0.015545117 0.040334474 0.059632648 0.061762393 0.0017259478 -0.049102433 0.012541032 -0.039406847
-0.051714163 0.05897577 0.050529923 -0.052245498 0.0027657303 0.0025090096 -0.016346978 -0.035228975
0.018673534 -0.023447769 0.032020666 0.022607435 0.032481954 0.030511053 -0.068481445 -0.036368497
0.021413155 0.020961938 -0.0372772 -0.021391982 0.05685631 0.04396711 -0.015078073 -0.021177322
-0.04731164 -0.011189504 -0.038441505 -0.053941708 -0.012324126 -0.0014436918 -0.014884083 0.022998491
-0.024902642 0.051671762 0.041630853 -0.038584694 -0.010607796 0.007643231 0.018245844 0.0016727343
0.02019566 0.0065723374 -0.038137764 0.020401036 -0.0474348 -0.04291528 -0.020055955 -0.02391445
-0.029708529 -0.038376655 -0.009239101 0.023124652 -0.033000045 0.001127506 0.040172994 0.0011367574
-0.0046454426 -0.016086906 0.019927286 0.038968276 0.06017729 0.045880623 0.06693028 0.0030347803
-0.045986082 -0.031404745 0.05029951 0.006480725 -0.026823558 -0.03834542 -0.04584207 -0.05802587
-0.006030518 0.04240706 0.02324589 -0.061222926 0.043664698 -0.052360345 -0.017642802 -0.03197586
-0.002029732 0.00013849996 -0.060864665 -0.060304597 -0.009573456 0.0064741843 -0.03563956 0.031685814
-0.060690906 -0.011341592 0.054311495 -0.034560345 0.046153486 0.030819112 -0.061885815 0.043704715
-0.019413937 -0.019083058 0.053451624 -0.053540297 0.016082538 -0.01760935 0.05265315 0.018962424
0.035987787 0.024722371 -0.004038886 -0.019400474 -0.04244881 0.022681553 0.034587003 0.049035065
-0.03296568 0.0134055 -0.049188152 -0.039097317 -0.027535066 0.024499353 -0.031342726 0.008808745
-0.0046647144 0.047093313 -0.03243267 -0.046261314 -0.0388845 0.036370102 -0.031640876 0.053742573
0.01473979 -0.0032906802 -0.006913972 -0.021534704 0.016594607 -0.0023479701 0.008440857 0.00075326324
-0.04100787 -0.024558073 0.04111285 -0.040623963 -0.0014452109 0.04799916 0.012548847 -0.0049599973
-0.061559398 0.037175 -0.033545297 -0.008159162 -0.027163731 -0.01778505 -0.008812662 0.036817104
0.013665126 0.03984489 0.03034544 -0.04508439 0.031818 -0.03205751 -0.015727311 0.026294813
0.01502474 0.041519098 -0.023870002 0.00023431628 0.023944575 -0.052971635 0.047634438 -0.036260687
-0.0073930775 -0.00914831 -0.02171098 0.011546798 0.053207684 -0.0057266993 -0.03835987 -0.017637448

bias f4 [119]
00000000: 3087 0cbd 650b 48bd f339 113d c826 3d3d
00000010: 000b bb38 5fd7 1ebc b9c1 21bd 7e10 94bc
00000020: 0749 da3c b049 d43a e2d2 6abd 804f a4bc
00000030: e2e0 2fbd 5e49 43bc 5cfe 8d3c 89dc 513d
00000040: bf36 e5bb b451 ca3c a14a 48bd 80a4 80bd
00000050: 54d2 11bd 3499 b3bc 0094 0a3d afdf fbbc
00000060: 6756 99bb 9fa8 14bd 2e80 24bd aad3 17bc
00000070: 798f d93c 2833 e5bc a2a8 1a3d 8eb7 96bb
00000080: 4933 0dbc a09e 89bc 468a 103b b10b 683b
00000090: 991a 2cbd 0e76 303c ccfc 2a3c c7e3 03bd
000000a0: 89f8 7c3b bd2d 143c dd60 d83c a169 da3c
000000b0: 63fe f53c 684d 883c 04ab 84bd 0544 613c
000000c0: f26a f93c 89f7 e03c 7fcb b2bb be7d 2dbd
000000d0: d033 20bd 07f9 183d d4a1 8cbc e5ce 04bd
000000e0: 43c2 c63c 468c 2cbd e139 adba c1c4 8abd
000000f0: 221e 0fbd 8dc3 6abd 2251 cabc 8e58 cd3c
00000100: ecf9 1abb cd37 75bd 43b7 2cbd ad46 44bd
00000110: ce0c adbc 0199 273d 2b72 823b 40b8 773c
00000120: 2005 9cbc 9897 ddbc 307f 3b3c 814e 99b9
00000130: 780e c23c 5408 a4bd 5fcf f53c dfbd 84bd
00000140: 9d61 223d 918e 8cbd 8d48 90bd baf6 e73c
00000150: 0453 ccbc 9140 30bd 02d1 3d3b 88da 27bc
00000160: b8dd 05bd e04f 5dbd d6ab 34bd 8831 1c3d
00000170: 53bf 16bd 4cc8 f93b e54b 4fbd 2cc9 22bd
00000180: 8713 d23c 9631 0fbd b808 0c3d 81b0 35bc
00000190: 874b 84bd 8aa9 7ebd 6d8c a8bd 943e 3abc
000001a0: 0053 1fbd 5856 0a3d 25a9 a7ba 213f e03c
000001b0: a76e c2bc 9089 4ebd 6c68 903c 5ce2 12bd
000001c0: 7397 d5bb 4757 7fbd 9089 c0bc c613 eabc
000001d0: 2e8c 9abc 8251 58bc 0fd4 13bc
-0.034308612 -0.04883899 0.035455655 0.046179563 8.918904e-05 -0.009694903 -0.03949139 -0.01807427
0.02664615 0.0016196277 -0.05733002 -0.02005744 -0.042939074 -0.011919348 0.017333202 0.05123571
-0.0069950516 0.024697162 -0.048899297 -0.06281376 -0.035600975 -0.021923639 0.03383255 -0.03074631
-0.0046794894 -0.036293622 -0.040161304 -0.009266773 0.02655767 -0.027978495 0.037758477 -0.004599518
-0.008618184 -0.016799271 0.0022055074 0.003540736 -0.042017553 0.010770334 0.010436248 -0.032199647
0.0038600287 0.009044108 0.026413376 0.026661696 0.030028528 0.016638473 -0.06477931 0.013749127
0.030446503 0.027461784 -0.0054563875 -0.042356245 -0.039111912 0.037346866 -0.01716701 -0.032423873
0.024262553 -0.042125963 -0.0013216102 -0.06775809 -0.034940846 -0.057315398 -0.02469689 0.02506664
-0.00236475 -0.05986767 -0.04216696 -0.047918964 -0.02112427 0.0409174 0.003980895 0.015119612
-0.019045413 -0.027049825 0.011443898 -0.00029240924 0.02368854 -0.08009401 0.030006109 -0.064815275
0.039643873 -0.0686313 -0.07045088 0.02831589 -0.024941929 -0.043030325 0.002896369 -0.010244973
-0.03268215 -0.054031253 -0.044109188 0.038133174 -0.036803555 0.007622754 -0.050609488 -0.039742634
0.025644077 -0.0349594 0.034188002 -0.011089445 -0.06459718 -0.062173404 -0.08229909 -0.011367459
-0.038897514 0.03377375 -0.0012791498 0.027373852 -0.023734404 -0.05042416 0.017627917 -0.035860404
-0.0065182983 -0.062339094 -0.023503095 -0.028573882 -0.018865671 -0.013203027 -0.009022727
